…
68/68 - 2s - loss: 0.2489 - categorical_accuracy: 0.9185 - val_loss: 1.1169 - val_categorical_accuracy: 0.7111 - _timestamp: 1647763089.0000 - _runtime: 792.0000 - 2s/epoch - 33ms/step
Epoch 200/200
68/68 - 2s - loss: 0.1662 - categorical_accuracy: 0.9556 - val_loss: 0.7235 - val_categorical_accuracy: 0.8222 - _timestamp: 1647763091.0000 - _runtime: 794.0000 - 2s/epoch - 33ms/step
Model: "sequential"
_________________________________________________________________
 Layer (type)                Output Shape              Param #
=================================================================
 lstm (LSTM)                 (None, 25, 128)           133632
 dropout (Dropout)           (None, 25, 128)           0
 lstm_1 (LSTM)               (None, 64)                49408
 dropout_1 (Dropout)         (None, 64)                0
 dense (Dense)               (None, 32)                2080
 dense_1 (Dense)             (None, 10)                330
=================================================================
Total params: 185,450
Trainable params: 185,450
Non-trainable params: 0
_________________________________________________________________
Confusion matrix, without normalization
[[3 4 2 0 0 0 0 0 0 0]
 [1 7 1 0 0 0 0 0 0 0]
 [2 4 2 0 1 0 0 0 0 0]
 [0 0 0 8 0 0 0 0 1 0]
 [1 0 1 0 7 0 0 0 0 0]
 [0 0 0 0 0 8 1 0 0 0]
 [0 0 0 0 0 0 9 0 0 0]
…
